attack_net.pth (torch, 265119 bytes, 4 tensors)

fc1.weight f4 [128, 512]
000000 81 f6 02 80 f8 d2 bf bd ac 0e 24 bc 14 d4 b6 bd
       -2.721e-40 -0.09366411 -0.010013264 -0.089271694
000010 20 72 01 00 c9 c4 02 00 a7 c2 00 00 51 dc 05 00
       1.32776e-40 2.54264e-40 6.9828e-41 5.38212e-40
000020 26 59 06 80 03 7b 00 80 03 77 16 bd 00 69 01 00
       -5.82993e-40 -4.4128e-41 -0.036734592 1.29502e-40
000030 d7 8b 11 3d b4 59 04 80 a8 f5 00 80 89 71 b9 21
       0.035533752 -3.99521e-40 -8.8125e-41 1.256614e-18
000040 c0 83 92 bc b4 c5 aa bb e2 8b 10 3d 42 a2 03 3c
       -0.017885089 -0.0052115563 0.035289653 0.008034291
000050 bc c2 37 bc ae c7 01 00 ee 7f 0a 3d b1 82 ae 3d
       -0.011215862 1.63467e-40 0.03381341 0.08521021
000060 3f f7 00 00 40 6d ca 3c 4b 0a 0a bd 61 dd 93 bd
       8.8695e-41 0.024710298 -0.033701222 -0.07219959
000070 e0 38 04 80 c4 da a5 3d 2b 26 6e 3c 53 24 00 00
       -3.87745e-40 0.08098367 0.014535467 1.303e-41
000080 9d 71 03 00 5a f2 49 3c 73 5f 00 80 3c 40 03 80
       3.16263e-40 0.0123258475 -3.4241e-41 -2.9855e-40
000090 c2 bb 01 00 5b 27 04 80 8a 65 01 80 42 d2 76 3c
       1.5919e-40 -3.8146e-40 -1.28261e-40 0.015064778
0000a0 45 b8 92 bd 80 bd 86 3c 75 20 17 3e 27 47 f4 bd
       -0.07164053 0.016447783 0.14758475 -0.11927634
0000b0 2d 3f 86 3c 8b 1e 01 00 c2 28 b6 3c 6c c3 00 80
       0.016387546 1.02792e-40 0.022236232 -7.0104e-41
0000c0 11 34 f1 3c 74 64 03 80 92 6e 01 00 24 ec 0c bd
       0.029443773 -3.11542e-40 1.315e-40 -0.03440489
0000d0 5f b0 d9 3d 99 21 01 80 f5 23 03 80 46 ce 8b 3d
       0.10629343 -1.03888e-40 -2.88405e-40 0.06826453
0000e0 c4 1d 00 00 f2 04 00 00 f8 aa 05 00 a0 03 03 00
       1.0678e-41 1.774e-42 5.2051e-40 2.76807e-40
0000f0 34 c6 11 bd d0 50 04 00 84 19 02 80 75 c7 01 00
       -0.03558941 3.96332e-40 -1.92824e-40 1.63387e-40
000100 ca 93 02 80 b2 2a b2 bc cc 86 06 00 c0 d5 05 00
       -2.36688e-40 -0.021748874 5.99369e-40 5.35857e-40
000110 d7 4e 01 80 7a 30 02 00 d7 29 64 be 07 97 01 80
       -1.20118e-40 2.01061e-40 -0.22281586 -1.46014e-40
000120 8d 32 02 bd 76 a8 01 80 88 4f 15 3d 26 88 e9 3c
       -0.03178649 -1.52268e-40 0.0364528 0.028507303
000130 9d 81 91 3d e4 b9 01 00 ee cb 02 00 db b3 03 80
       0.071048 1.5852e-40 2.56827e-40 -3.40026e-40
000140 66 dd cc bd 11 67 e1 ba 08 b8 00 80 f0 b3 07 bc
       -0.10003166 -0.0017196854 -6.6018e-41 -0.008282647
000150 12 12 00 00 f9 3e 03 00 87 77 7b bd b8 74 02 80
       6.482e-42 2.98097e-40 -0.061393287 -2.25542e-40
000160 ae 29 bf bc d7 6a 01 00 7f 27 00 80 e2 ef 00 00
       -0.023335304 1.30162e-40 -1.4169e-41 8.6054e-41
000170 73 6d 02 bc e5 a4 03 00 46 03 01 80 eb e3 01 80
       -0.007960665 3.3466e-40 -9.301e-41 -1.73597e-40
000180 a4 4b e3 3d df 96 5f bd 73 86 21 be d6 26 02 00
       0.11098412 -0.05458724 -0.15773945 1.97603e-40
000190 c7 05 04 3d 5e 54 d9 bd b9 a2 bc 3d e5 09 06 80
       0.032232072 -0.10611795 0.092107244 -5.54562e-40
0001a0 f7 14 b8 bd 93 d4 00 00 d5 8e 22 3d ab 61 a5 bd
       -0.08988374 7.6257e-41 0.039686996 -0.08075269
0001b0 d1 92 ba bb 02 8c 01 00 9f bd 00 00 37 14 53 3d
       -0.0056937714 1.42061e-40 6.8023e-41 0.05153295
0001c0 b9 f8 16 bd be 11 03 00 9e 93 01 00 74 76 04 80
       -0.036858294 2.81871e-40 1.4479e-40 -4.09835e-40
0001d0 0c 2f 2b bd 9b 38 01 00 66 81 ba 3a c5 18 00 80
       -0.041792914 1.12142e-40 0.0014229238 -8.886e-42
0001e0 65 56 a2 bb 37 14 02 00 28 47 04 00 5c 88 02 80
       -0.0049541467 1.90923e-40 3.92868e-40 -2.32588e-40
0001f0 0d 97 08 be 7f 24 d1 3d f8 48 03 00 0b 50 01 00
       -0.13338871 0.10212039 3.01683e-40 1.2055e-40
000200 a2 da 02 80 cc 10 14 be 2d 83 ca 3b 2a 33 03 00
       -2.62102e-40 -0.14459532 0.006180188 2.9386e-40
000210 4c c4 03 00 03 f7 b1 3d 82 bb 01 00 a3 5d 00 00
       3.45925e-40 0.08689692 1.591e-40 3.359e-41
000220 88 3b cd 3d c7 b8 01 80 aa 40 a0 3c fa f4 02 80
       0.1002112 -1.58121e-40 0.019562084 -2.71552e-40
000230 39 58 01 80 10 d5 00 00 0c 69 03 00 62 45 e4 3b
       -1.23484e-40 7.6432e-41 3.1319e-40 0.006966279
000240 aa a8 3e 3b cd 77 00 80 b0 e0 02 00 72 c7 01 80
       0.002909223 -4.2976e-41 2.64274e-40 -1.63383e-40
000250 64 a0 04 3d 96 11 03 80 e1 c6 d2 bd 1f 5c 03 00
       0.032379523 -2.81815e-40 -0.102918394 3.08553e-40
000260 31 e1 2d be ff a5 e3 3c 41 f2 91 3c 52 38 83 3c
       -0.16980435 0.027789114 0.017815711 0.016018067
000270 84 3b 02 80 f2 98 06 be a9 7d 86 bb c3 88 9f bc
       -2.05021e-40 -0.13144282 -0.0041043353 -0.019474393
000280 b6 12 01 80 94 28 02 00 64 19 03 80 53 b1 c0 bd
       -9.8548e-41 1.98228e-40 -2.84615e-40 -0.09408822
000290 2b aa 02 00 ec 76 65 3c f0 69 01 00 de 5d 02 00
       2.44716e-40 0.014005404 1.29839e-40 2.17344e-40
0002a0 b5 3c 08 be c2 ca 03 80 a6 bc 28 bd 92 d3 03 3d
       -0.13304408 -3.48242e-40 -0.041195534 0.03218419
0002b0 4f 9b a9 bd 6f 9b 01 00 b4 7d 01 80 ec 52 03 00
       -0.08281576 1.47595e-40 -1.36929e-40 3.05253e-40
0002c0 08 40 01 00 7c d3 01 00 43 5a 03 80 99 63 01 00
       1.14806e-40 1.67702e-40 -3.07886e-40 1.27564e-40
0002d0 2e da 17 bc 41 f6 01 00 8b 69 01 00 b5 ee 08 bd
       -0.009268327 1.80175e-40 1.29697e-40 -0.033430774
0002e0 80 5e b4 3d c0 96 00 00 4e 7f 86 3d 57 35 03 00
       0.08807087 5.4079e-41 0.0656725 2.94641e-40
0002f0 29 a6 04 80 a4 14 13 3d fb bb 00 80 4f 98 00 00
       -4.26949e-40 0.035908356 -6.7435e-41 5.4638e-41
000300 89 fd 04 80 b7 18 87 bc cc e3 01 80 a9 22 12 3d
       -4.58293e-40 -0.016491277 -1.73554e-40 0.035677586
000310 2e 81 00 80 70 21 01 80 e5 76 01 00 8f 8b a6 3d
       -4.6341e-41 -1.0383e-40 1.34487e-40 0.081320874
000320 1a 22 01 80 8c 88 00 00 14 c7 01 80 0a 46 ca bc
       -1.04069e-40 4.8984e-41 -1.63251e-40 -0.0246916
000330 0b 32 01 80 be 05 00 80 47 54 03 00 5b 34 01 00
       -1.09788e-40 -2.06e-42 3.0574e-40 1.10617e-40
000340 08 18 50 3c 97 a8 d8 3d 84 04 05 00 aa 60 03 80
       0.012701042 0.10579031 4.60797e-40 -3.10183e-40
000350 1f b5 42 3d 94 12 02 80 6d 68 03 00 2f 44 12 3d
       0.04753601 -1.90336e-40 3.12967e-40 0.035709556
000360 79 59 01 80 40 f6 37 bd 06 40 00 80 9f e1 2a 3d
       -1.23932e-40 -0.044912577 -2.2967e-41 0.041719075
000370 c1 41 bf bd 9c 57 3e 3d 50 75 01 00 06 e0 01 00
       -0.093387134 0.04647027 1.33919e-40 1.722e-40
000380 dd a0 00 80 6d 8d 00 00 2f b9 c2 bb b5 1d 02 80
       -5.7707e-41 5.0734e-41 -0.0059424858 -1.94328e-40
000390 d6 ea 44 bd ef 96 01 80 72 1b 01 80 c7 42 00 00
       -0.04807552 -1.4598e-40 -1.01681e-40 2.3955e-41
0003a0 b6 b2 de 3b df 4c 7e bd 86 02 03 00 12 f1 f7 3b
       0.0067962063 -0.06208503 2.76412e-40 0.0075665796
0003b0 7e e2 00 80 bb 51 95 3c ff 38 00 80 f9 a9 02 00
       -8.125e-41 0.018227449 -2.0446e-41 2.44646e-40
0003c0 4e b2 00 00 cb 8c 02 80 d4 11 d1 3d 43 1d 76 3c
       6.3964e-41 -2.34178e-40 0.102084786 0.015021625
0003d0 f3 62 01 00 ad 22 1a 3e b9 03 c3 bc 83 55 1d 3d
       1.27332e-40 0.1505229 -0.023805486 0.03841163
0003e0 44 eb 01 00 c4 d2 00 00 82 36 01 80 fc 76 03 80
       1.76233e-40 7.5608e-41 -1.11389e-40 -3.1819e-40
0003f0 ad 10 00 3d d7 21 1f bb 99 09 20 3e fa b9 e2 3b
       0.031265903 -0.0024281645 0.15628661 0.006919143

fc1.bias f4 [128]
000000 2f 00 0f bd e6 99 69 3c 3a 72 31 94 8f a0 72 a1
       -0.034912284 0.014257884 -8.9587436e-27 -8.2205287e-19
000010 fd be dc bc 3f c7 ff 2f 42 57 a2 ba d5 c2 49 ae
       -0.026946539 4.6525803e-10 -0.0012385624 -4.5875154e-11
000020 ff 4b a0 bb 9c 7d 40 3c 73 fa 74 3d 8e 1c b1 28
       -0.004891872 0.011748698 0.05980916 1.9663331e-14
000030 1a be d9 3c 72 f3 23 3d bc 02 f3 3a 28 5c 06 bd
       0.026579905 0.04002709 0.0018540244 -0.03280273
000040 ab 05 1d bb 2d 26 fd b6 83 55 5e 2f 05 87 52 3c
       -0.0023959677 -7.544432e-06 2.0221162e-10 0.012849574
000050 91 ee b6 b4 3e 62 fa bc 0b 38 fe 3b d3 89 98 ba
       -3.4073722e-07 -0.030564424 0.0077581457 -0.0011637755
000060 3c 8f 96 bc 5c 41 d8 bb b7 3a a3 b8 4c d8 e2 3c
       -0.018378846 -0.0065995883 -7.783382e-05 0.027691029
000070 ed 1f fa b9 f1 5d 8b 3c ff 72 24 11 ef 47 5c bc
       -0.00047707502 0.017012568 1.2972755e-28 -0.013444885
000080 cc 78 54 3d 7f 26 eb 3c dd d1 75 b9 a9 49 23 bc
       0.051873013 0.02870488 -0.00023443201 -0.009966292
000090 6c cd c4 b3 0c 48 d8 9d 15 0a bf bb 0d ed 5c bb
       -9.164327e-08 -5.724922e-21 -0.0058300593 -0.003371063
0000a0 6d 15 e6 bc e4 cd ab 3c e1 e1 9a b7 02 50 c7 3a
       -0.028086388 0.0209722 -1.8463414e-05 0.0015206339
0000b0 08 ad 67 9a 73 71 9c 3d e8 fd a0 23 f5 c2 dc b7
       -4.7909454e-23 0.07638826 1.7454768e-17 -2.6316828e-05
0000c0 83 94 20 21 6f 97 09 3c 76 b8 a2 0f 5e f7 bf 3b
       5.440666e-19 0.008397921 1.6045485e-29 0.005858346
0000d0 38 23 9d bc 1a 4a 2a 3c 33 c7 e1 bb 11 c9 e9 b8
       -0.019181833 0.010393644 -0.0068902015 -0.00011147757
0000e0 a7 25 06 bd 1e 95 1b b3 3e 6d 06 b9 90 64 14 bc
       -0.03275075 -3.622437e-08 -0.00012819932 -0.009057179
0000f0 4a 0d a2 bc b5 ce ed b9 24 44 b6 bc 4d cb 5e 3b
       -0.019781727 -0.0004535817 -0.022249289 0.0033995688
000100 12 40 54 39 f3 2b 53 a2 d1 c9 64 39 80 50 33 9a
       0.00020241764 -2.8619099e-18 0.00021818957 -3.708136e-23
000110 f0 03 41 3c 59 64 b3 3b 1b f5 a1 3c 1c 99 16 3c
       0.011780724 0.005474609 0.019770196 0.009191778
000120 cf 68 32 bb 1f 06 4c 3c 25 3e 00 00 b8 b0 23 9c
       -0.0027223115 0.012452631 2.2293e-41 -5.416058e-22
000130 cf 5c 65 bd c8 0f 00 80 4c ff 4c ba 94 73 61 bd
       -0.055996712 -5.661e-42 -0.00078200246 -0.055041865
000140 37 83 00 80 38 ac b1 bc 51 ec af 38 c3 47 00 00
       -4.7071e-41 -0.021688566 8.3886676e-05 2.5743e-41
000150 bb ec 46 bd 7c ec 5e 9d 5e a5 0f b7 dc 41 55 bc
       -0.048565608 -2.9503715e-21 -8.561967e-06 -0.01301619
000160 1e 07 05 ad 3b 8a 6c bc 9b bc 17 3b c8 19 21 bd
       -7.561755e-12 -0.014437254 0.002315319 -0.039331228
000170 31 18 72 b4 67 aa c3 3c e1 40 bc bc d3 bb 94 bc
       -2.2546807e-07 0.023884965 -0.022980155 -0.018155968
000180 cc 55 3d b8 d9 56 6c b5 fe e8 cc b6 87 0d 04 b6
       -4.5141016e-05 -8.804323e-07 -6.1067976e-06 -1.9677407e-06
000190 6e 43 69 38 11 7e 01 ba e4 d0 00 00 68 30 a5 bc
       5.5614328e-05 -0.0004939745 7.4936e-41 -0.020164683
0001a0 6a b9 79 bd 0b cb b0 bc 79 51 9f ba 9a bf 7a 3d
       -0.06096784 -0.021581193 -0.0012155018 0.06121788
0001b0 89 a4 2d b3 a1 40 00 80 87 84 c2 3c 91 c2 00 80
       -4.0429345e-08 -2.3184e-41 0.023744835 -6.9797e-41
0001c0 f0 de 3d 3d 1a 2b 8b 2a 03 22 1e 3c a8 84 fb bb
       0.046355188 2.4721268e-13 0.009651664 -0.007675726
0001d0 fd 6e 4c 3c 54 95 cb b7 3c bc e6 bc e4 c4 e8 3c
       0.012477634 -2.4269022e-05 -0.028165929 0.028414197
0001e0 08 97 b1 b9 b1 8d 4a b2 ce db 63 9b dc ee cd 3c
       -0.00033872598 -1.1790164e-08 -1.8848023e-22 0.025138311
0001f0 c3 1f 33 3d 7c a2 e1 ba 0c 76 9b 3c fa d0 75 3c
       0.043731462 -0.0017214562 0.018977188 0.015003437

fc2.weight f4 [2, 128]
000000 4c 5a ad be 06 7c dc 3e 21 4c 63 bc 49 54 43 3c
       -0.33857954 0.43063372 -0.013873131 0.011921951
000010 ca 53 cb 3d e8 34 ae 3a b3 e6 d1 3c 40 45 3b 3b
       0.09928091 0.0013290914 0.025622701 0.0028575212
000020 48 4f d9 be cd e9 2c bf c8 21 c7 be a5 51 ba bb
       -0.424433 -0.6754425 -0.3889296 -0.0056860023
000030 a8 9b d3 3d 87 d8 e6 3e 76 c3 ca bc 2a e2 45 bf
       0.103324234 0.45087072 -0.024751406 -0.77298224
000040 e5 a4 40 be 0c 63 47 3b 72 0a ef 3a 86 bf 38 3f
       -0.18812902 0.0030424027 0.0018237366 0.7216724
000050 4d 86 62 3d 85 0e fe 3e 31 ba 93 be f5 b1 c0 bc
       0.05530386 0.49620453 -0.2885299 -0.023522357
000060 2c a4 d2 3e 88 ef 34 be a4 ea 77 bb 07 bc db be
       0.41140878 -0.17669499 -0.0037829066 -0.4291689
000070 12 77 6e bc 96 78 9a be 96 fa 0d bc 89 4c 60 3d
       -0.014554756 -0.30170125 -0.008665701 0.05476049
000080 c0 72 15 3f 0f 37 17 bf 22 ed bb bc 21 f3 11 be
       0.5837822 -0.5906839 -0.022940222 -0.14252903
000090 c1 8f d2 b3 6b da 60 bc e0 2b 7c 3e 7a b4 4b bd
       -9.805036e-08 -0.01372395 0.24626112 -0.049732663
0000a0 91 6d 32 3d b7 59 aa bd 2b 0b 03 3d 39 80 92 3c
       0.043561522 -0.08317893 0.031993072 0.017883407
0000b0 02 93 1e 3d 7d 56 31 3f 00 9c bd bb 2f fa ac b9
       0.038714416 0.69272596 -0.005786419 -0.00032992798
0000c0 a6 c6 64 27 40 d3 b8 be f7 03 3d 37 a1 c3 b3 be
       3.1749044e-15 -0.3609867 1.1266201e-05 -0.3511019
0000d0 eb 76 5e bf 58 cf b9 be 14 a6 1c 3f ac da a2 bc
       -0.86900204 -0.36291003 0.61190915 -0.019879662
0000e0 2e 43 d1 3e e3 68 be b5 81 4e 59 bc 93 d2 f4 3e
       0.40871567 -1.4186629e-06 -0.013263346 0.47816905
0000f0 1e b9 0d bc 07 43 53 3d 9d c7 95 ba 10 13 62 3a
       -0.008650092 0.051577594 -0.0011427287 0.00086240564
000100 ad 01 31 bc 0e 10 7e bc 93 2b a1 3c 18 ad 7a 3c
       -0.010803622 -0.015506757 0.019674098 0.015300058
000110 fa 0c 7a bd 09 0c 6c bd e0 0b 69 3e 28 d6 99 be
       -0.06104753 -0.057628665 0.22758436 -0.300462
000120 67 f0 49 bf 54 d7 41 bd cc da 3c 30 b3 0d f2 3a
       -0.7888245 -0.047324494 6.870493e-10 0.0018467217
000130 94 35 22 bf e8 c9 04 3b d0 2b 0d 3f db bf 9e be
       -0.63363004 0.0020261947 0.5514498 -0.3100575
000140 29 2b 63 ba 25 d9 00 3f 52 a5 a6 ba 0e 54 a5 2d
       -0.0008665794 0.50331336 -0.0012714064 1.8795656e-11
000150 e0 80 17 bf 09 3e 2b 3b fe 68 0c 3c 89 3a fb 3d
       -0.5918102 0.0026129505 0.008569954 0.12267024
000160 24 0f 91 3c 50 73 9a 3e 1e d1 8b 3d 6c d8 1a 3f
       0.017707415 0.301661 0.06826995 0.60486484
000170 30 d1 a8 36 2a 9a 07 bf cf a8 77 be 1c 1d 8b bc
       5.031143e-06 -0.5296961 -0.24185489 -0.016981654
000180 ed 10 87 bc 55 28 e3 39 a4 24 d8 bc c1 39 6c b9
       -0.016487563 0.00043326864 -0.02638466 -0.00022528229
000190 18 87 08 3c 94 1c c6 bc bb 57 4a b7 bd 53 51 3f
       0.00833299 -0.024183549 -1.2060565e-05 0.817684
0001a0 c0 dd 09 bf b5 88 c0 bd aa 7d c5 bc f3 58 f2 3e
       -0.5385399 -0.09401075 -0.024107773 0.47333488
0001b0 44 49 bd bb 56 fb 03 ba 2a 92 ce 3e 55 9d 9e 3b
       -0.005776556 -0.00050347054 0.4034589 0.004840533
0001c0 4e c8 e4 3e 34 15 89 bb 75 54 b4 3e 52 d4 0c 3f
       0.4468407 -0.004183436 0.35220686 0.55011475
0001d0 d0 d2 b0 bd df 9a d8 ba 93 24 1a bf f8 4a c3 3d
       -0.08633959 -0.0016525647 -0.6021206 0.095357835
0001e0 eb 85 43 3d 1c 6b 4b 39 b9 12 d5 3c ba 76 be be
       0.047735136 0.0001939949 0.026009904 -0.37199956
0001f0 cc 61 c6 be c4 04 1b be 6c 69 71 3d 69 18 e3 3d
       -0.38746488 -0.15138537 0.05893843 0.1108864
000200 a1 93 bf 3e 8f 5f f3 be 69 8e 64 3c 7d 5c 43 bc
       0.3741732 -0.47533843 0.013949969 -0.011923906
000210 92 36 57 bd 96 75 87 bc 4a 65 02 3c 72 eb ec 3b
       -0.052542277 -0.016535562 0.0079587195 0.0072302157
000220 5d 92 f2 3e 20 e1 31 3f 0e 56 dd 3e fd ca d1 3b
       0.4737729 0.6948414 0.43229717 0.006402372
000230 a1 96 0d bd 92 65 ea be 21 18 26 3d 47 2d 41 3f
       -0.03456748 -0.45780617 0.040550355 0.7545971
000240 44 8b 1a 3e 91 63 92 bc 44 51 81 bc 0f 70 44 bf
       0.15092188 -0.017869743 -0.01578582 -0.7673349
000250 66 bc 2e 3d 6d 07 13 bf be 6b 95 3e 69 30 90 3c
       0.04266014 -0.57433206 0.29183763 0.017601209
000260 13 fb 93 be 00 17 4b 3e 59 de 78 3b db cc ee 3e
       -0.28902492 0.19832993 0.0037974326 0.46640667
000270 a3 2c 8b 3c a9 ff 4d 3e 99 13 a7 bc 9c 87 90 bd
       0.016989058 0.20117058 -0.020395087 -0.070571154
000280 4a 8e fb be 88 71 09 3f 4c d7 73 bd b5 60 b5 3d
       -0.49131995 0.5368886 -0.059531495 0.08856336
000290 cd 1d d2 33 51 60 25 bd 51 0e 5b be 20 f5 43 3d
       9.784308e-08 -0.040375058 -0.2139218 0.04784119
0002a0 c8 ca 28 bd 14 d0 10 3d 2f 98 e1 3c 3f 85 0d bd
       -0.041209012 0.03535469 0.027538387 -0.0345509
0002b0 57 ef 16 3d 57 92 29 bf 89 bf 01 bc 6c 3a ad bb
       0.036849346 -0.6623892 -0.007919201 -0.0052865054
0002c0 1b 34 3e 26 de de f0 3e 5c db 72 37 ca a1 f8 3e
       6.599011e-16 0.47045034 1.4475398e-05 0.48560935
0002d0 93 df 6d 3f 78 6a db 3e 30 7d fc be ee 7d 9e 3c
       0.9291927 0.42854667 -0.4931426 0.019347157
0002e0 f8 bb d1 be 35 f1 9a 35 32 86 d9 3b 06 cb 09 bf
       -0.4096372 1.1544095e-06 0.006638312 -0.53825414
0002f0 c5 e6 7f 3d ec 1f 96 bc 8c 80 9e 3d 16 28 30 3d
       0.06247594 -0.018325768 0.07739362 0.04300698
000300 2b aa 4e 3c 8a 9a c1 3c 5d 5b 00 bd db ca 83 bc
       0.012613813 0.02363326 -0.03133713 -0.01608794
000310 35 9b 04 3e 9c 43 a5 bc ef 7f b8 be 22 83 5e 3e
       0.12949832 -0.02017384 -0.36035106 0.2172971
000320 d8 ac 4d 3f 63 70 ce 3b f4 ef 36 b0 29 14 f2 b8
       0.80341864 0.0063000186 -6.655221e-10 -0.00011543214
000330 df 38 24 3f 33 a6 80 ba 05 8c fb be 3b 04 a1 3e
       0.6414928 -0.0009815156 -0.49130264 0.3144854
000340 d7 2a 4c ba e1 a6 dc be 7a 9a 30 3b 0f 5e da ad
       -0.0007788366 -0.43096069 0.0026947544 -2.4825501e-11
000350 c7 d4 33 3f 65 ab 0e bb 3d 90 bf bc a9 a2 36 be
       0.7024655 -0.002176964 -0.023384208 -0.17835487
000360 20 fa 90 bc 94 7c af be 7d d7 ee bc 5a 74 1d bf
       -0.017697394 -0.34274733 -0.029155487 -0.61505663
000370 cd f4 a8 b6 36 69 d5 3e 84 0a 51 3e c3 c7 e0 3c
       -5.0352887e-06 0.41681832 0.20414168 0.027439004
000380 3f 72 e5 bc 25 df b7 39 09 36 df bb f8 0e 6c 39
       -0.028008578 0.00035070736 -0.0068118614 0.0002251229
000390 32 f5 c3 bc c4 ef b5 bb c8 03 53 37 9c 31 59 bf
       -0.02392063 -0.005552264 1.257746e-05 -0.8484132
0003a0 5e 0b 18 3f 07 46 a3 3d b6 f8 28 bc c8 15 f2 be
       0.59392345 0.07972341 -0.010313204 -0.47282243
0003b0 54 bc 92 bc f6 fd 87 3a ec e3 f9 be 8f 97 9e bb
       -0.017912067 0.0010375369 -0.48806703 -0.0048398445
0003c0 9b 1d bf be a8 97 55 bb cb 0a 95 be 96 1f e1 be
       -0.37327275 -0.0032591615 -0.29109797 -0.4396941
0003d0 1c a6 86 3c 5b c2 a6 bb c2 5c 1a 3f d7 96 d1 bd
       0.016436629 -0.005089087 0.6029779 -0.102338485
0003e0 7f 62 49 3c f7 f2 a4 39 97 70 21 bc 72 30 c7 3e
       0.01229155 0.0003146154 -0.009853504 0.38904148
0003f0 99 82 b6 3e a6 5f 2f 3e 62 f2 ee 3b 7f 04 1e be
       0.35646513 0.1712633 0.007292078 -0.15431403

fc2.bias f4 [2]
000000 12 98 74 bd 71 ef 64 bd
       -0.059715338 -0.05589241
